pretrained_models/student.model (torch, 2207 bytes, 3 tensors)

conv1.1.weight f4 [4, 2, 3, 3]
-0.00020436924 0.09925944 0.08819527 0.14312221 0.24864471 0.26647314 0.048107997 0.12068582
-0.015791906 0.1907396 0.007732137 0.24345516 0.083730176 0.27056786 0.14033939 -0.18441804
0.013357086 -0.20844047 -0.14532575 -0.06027062 -0.16447757 -0.15206414 -0.17734285 -0.19785452
-0.11858682 0.20177469 -0.095214434 0.18782003 0.26898682 0.17874295 0.3006542 0.16936857
-0.19867891 -0.1309339 0.0377526 0.1903117 0.029689655 0.27854523 -0.049892295 -0.02970798
-0.029918913 -0.28736764 0.08818741 0.12927224 -0.1553919 0.026358075 0.32853812 0.14556013
0.09895915 0.039998837 -0.23114562 0.03430226 0.18686026 -0.27040294 0.18992697 -0.14284477
0.17289893 0.14123864 -0.0073791808 0.034792032 0.36936614 0.16334309 0.06714572 0.21971524
-0.15735261 -0.027019504 0.029932737 0.06398718 -0.25039083 -0.0030847695 0.40299395 0.018886885
00000000: f34b 56b9 8948 cb3d b99f b43d a18e 123e
00000010: b89c 7e3e 2b6f 883e e40c 453d 212a f73d
00000020: 075e 81bc 3e51 433e de5d fd3b 4f4c 793e
00000030: ba7a ab3d df87 8a3e 21b5 0f3e 15d8 3cbe
00000040: aed7 5a3c 6b71 55be 46d0 14be 53de 76bd
00000050: cf6c 28be b4b6 1bbe 5d99 35be 609a 4abe
00000060: a6dd f2bd 069e 4e3e c9ff c2bd e553 403e
00000070: a4b8 893e 6408 373e 59ef 993e f46e 2d3e
00000080: 7c72 4bbe 8913 06be 78a2 1a3d 12e1 423e
00000090: b837 f33c 7b9d 8e3e dd5b 4cbd 265e f3bc
000000a0: 8218 f5bc da21 93be 9a9b b43d f15f 043e
000000b0: 0e1f 1fbe e4ec d73c 2636 a83e b70d 153e
000000c0: 18ab ca3d d2d5 233d 70b1 6cbe 8780 0c3d
000000d0: 4c58 3f3e 4172 8abe 377c 423e e645 12be
000000e0: 6b0c 313e dda0 103e 0ecd f1bb 1782 0e3d
000000f0: 8f1d bd3e 6943 273e b283 893d 08fd 603e
00000100: 0b21 21be 0258 ddbc 8035 f53c b60b 833d
00000110: 3a33 80be d829 4abb 3955 ce3e abb8 9a3c

conv1.1.bias f4 [4]
-0.119737975 -0.015124035 0.21041279 0.008350296
00000000: 2f39 f5bd cdca 77bc 7376 573e aecf 083c

conv2.1.weight f4 [1, 4, 3, 3]
-0.10384262 0.0059916703 -0.1403567 0.13920912 0.21554326 0.14071336 0.17293467 -0.10990974
0.087272964 0.13994448 0.083813965 0.0067428 -0.06053574 0.025323609 0.15381168 0.12172034
0.22099394 0.0594448 -0.32380328 0.09148455 0.13603754 -0.39461768 0.116270624 -0.030997068
0.064161584 0.28021127 -0.0349978 0.12084099 0.37009418 0.0915095 -0.1560307 0.11102982
0.042345535 -0.016111264 -0.16202869 0.17205226
00000000: 71ab d4bd c655 c43b abb9 0fbe d68c 0e3e
00000010: 5fb7 5c3e 2a17 103e c915 313e 5c18 e1bd
00000020: 2bbc b23d 9b4d 0f3e a8a6 ab3d b5f2 dc3b
00000030: 53f4 77bd 7573 cf3c cf80 1d3e 8348 f93d
00000040: 3c4c 623e 647c 733d 8bc9 a5be 405c bb3d
00000050: 6d4d 0b3e 540b cabe 4b1f ee3d 90ed fdbc
00000060: 2667 833d da77 8f3e da59 0fbd 7b7b f73d
00000070: fc7c bd3e 5569 bb3d 83c6 1fbe 9a63 e33d
00000080: 8372 2d3d c5fb 83bc d9ea 25be 782e 303e
